…
    "    'output':102,\n",
    "    'dropout': .25,\n",
    "    'state_dict': model.state_dict(),\n",
    "    'class_to_idx': train_img_ds.class_to_idx,\n",
    "    'optimizer': optimizer.state_dict(),\n",
    "    'epochs':8\n",
    "}\n",
    "\n",
    "if not os.path.exists('checkpoint'):\n",
    "    os.makedirs('checkpoint')\n",
    "torch.save(checkpoint, checkpoint_path)"
   ]
  },
  {
   "cell_type": "code",
   "execution_count": 14,
   "metadata": {},
   "outputs": [
    {
     "name": "stdout",
     "output_type": "stream",
     "text": [
      "VGG(\n",
      "  (features): Sequential(\n",
      "    (0): Conv2d(3, 64, kernel_size=(3, 3), stride=(1, 1), padding=(1, 1))\n",
      "    (1): ReLU(inplace)\n",
      "    (2): Conv2d(64, 64, kernel_size=(3, 3), stride=(1, 1), padding=(1, 1))\n",
      "    (3): ReLU(inplace)\n",
      "    (4): MaxPool2d(kernel_size=2, stride=2, padding=0, dilation=1, ceil_mode=False)\n",
      "    (5): Conv2d(64, 128, kernel_size=(3, 3), stride=(1, 1), padding=(1, 1))\n",
      "    (6): ReLU(inplace)\n",
      "    (7): Conv2d(128, 128, kernel_size=(3, 3), stride=(1, 1), padding=(1, 1))\n",
      "    (8): ReLU(inplace)\n",
      "    (9): MaxPool2d(kernel_size=2, stride=2, padding=0, dilation=1, ceil_mode=False)\n",
      "    (10): Conv2d(128, 256, kernel_size=(3, 3), stride=(1, 1), padding=(1, 1))\n",
      "    (11): ReLU(inplace)\n",
      "    (12): Conv2d(256, 256, kernel_size=(3, 3), stride=(1, 1), padding=(1, 1))\n",
      "    (13): ReLU(inplace)\n",
      "    (14): Conv2d(256, 256, kernel_size=(3, 3), stride=(1, 1), padding=(1, 1))\n",
      "    (15): ReLU(inplace)\n",
      "    (16): Conv2d(256, 256, kernel_size=(3, 3), stride=(1, 1), padding=(1, 1))\n",
      "    (17): ReLU(inplace)\n",
      "    (18): MaxPool2d(kernel_size=2, stride=2, padding=0, dilation=1, ceil_mode=False)\n",
      "    (19): Conv2d(256, 512, kernel_size=(3, 3), stride=(1, 1), padding=(1, 1))\n",
      "    (20): ReLU(inplace)\n",
      "    (21): Conv2d(512, 512, kernel_size=(3, 3), stride=(1, 1), padding=(1, 1))\n",
      "    (22): ReLU(inplace)\n",
      "    (23): Conv2d(512, 512, kernel_size=(3, 3), stride=(1, 1), padding=(1, 1))\n",
      "    (24): ReLU(inplace)\n",
      "    (25): Conv2d(512, 512, kernel_size=(3, 3), stride=(1, 1), padding=(1, 1))\n",
      "    (26): ReLU(inplace)\n",
      "    (27): MaxPool2d(kernel_size=2, stride=2, padding=0, dilation=1, ceil_mode=False)\n",
      "    (28): Conv2d(512, 512, kernel_size=(3, 3), stride=(1, 1), padding=(1, 1))\n",
      "    (29): ReLU(inplace)\n",
      "    (30): Conv2d(512, 512, kernel_size=(3, 3), stride=(1, 1), padding=(1, 1))\n",
      "    (31): ReLU(inplace)\n",
      "    (32): Conv2d(512, 512, kernel_size=(3, 3), stride=(1, 1), padding=(1, 1))\n",
      "    (33): ReLU(inplace)\n",
      "    (34): Conv2d(512, 512, kernel_size=(3, 3), stride=(1, 1), padding=(1, 1))\n",
      "    (35): ReLU(inplace)\n",
      "    (36): MaxPool2d(kernel_size=2, stride=2, padding=0, dilation=1, ceil_mode=False)\n",
      "  )\n",
      "  (classifier): Sequential(\n",
      "    (0): Linear(in_features=25088, out_features=4096, bias=True)\n",
      "    (1): ReLU(inplace)\n",
      "    (2): Dropout(p=0.5)\n",
      "    (3): Linear(in_features=4096, out_features=4096, bias=True)\n",
      "    (4): ReLU(inplace)\n",
      "    (5): Dropout(p=0.5)\n",
      "    (6): Linear(in_features=4096, out_features=1000, bias=True)\n",
      "  )\n",
      ")\n"
     ]
    }
   ],
   "source": [
    "print (model)"
   ]
  },
  {
   "cell_type": "markdown",
   "metadata": {},
   "source": [
    "## Loading the checkpoint\n",
    "\n",
    "At this point it's good to write a function that can load a checkpoint and rebuild the model. That way you can come back to this project and keep working on it without having to retrain the network."
   ]
  },
  {
   "cell_type": "code",
   "execution_count": 12,
   "metadata": {},
   "outputs": [
    {
     "name": "stdout",
     "output_type": "stream",
     "text": [
      "VGG(\n",
      "  (features): Sequential(\n",
      "    (0): Conv2d(3, 64, kernel_size=(3, 3), stride=(1, 1), padding=(1, 1))\n",
      "    (1): ReLU(inplace)\n",
      "    (2): Conv2d(64, 64, kernel_size=(3, 3), stride=(1, 1), padding=(1, 1))\n",
      "    (3): ReLU(inplace)\n",
      "    (4): MaxPool2d(kernel_size=2, stride=2, padding=0, dilation=1, ceil_mode=False)\n",
      "    (5): Conv2d(64, 128, kernel_size=(3, 3), stride=(1, 1), padding=(1, 1))\n",
      "    (6): ReLU(inplace)\n",
      "    (7): Conv2d(128, 128, kernel_size=(3, 3), stride=(1, 1), padding=(1, 1))\n",
      "    (8): ReLU(inplace)\n",
      "    (9): MaxPool2d(kernel_size=2, stride=2, padding=0, dilation=1, ceil_mode=False)\n",
      "    (10): Conv2d(128, 256, kernel_size=(3, 3), stride=(1, 1), padding=(1, 1))\n",
      "    (11): ReLU(inplace)\n",
      "    (12): Conv2d(256, 256, kernel_size=(3, 3), stride=(1, 1), padding=(1, 1))\n",
      "    (13): ReLU(inplace)\n",
      "    (14): Conv2d(256, 256, kernel_size=(3, 3), stride=(1, 1), padding=(1, 1))\n",
      "    (15): ReLU(inplace)\n",
      "    (16): Conv2d(256, 256, kernel_size=(3, 3), stride=(1, 1), padding=(1, 1))\n",
      "    (17): ReLU(inplace)\n",
      "    (18): MaxPool2d(kernel_size=2, stride=2, padding=0, dilation=1, ceil_mode=False)\n",
      "    (19): Conv2d(256, 512, kernel_size=(3, 3), stride=(1, 1), padding=(1, 1))\n",
      "    (20): ReLU(inplace)\n",
      "    (21): Conv2d(512, 512, kernel_size=(3, 3), stride=(1, 1), padding=(1, 1))\n",
      "    (22): ReLU(inplace)\n",
      "    (23): Conv2d(512, 512, kernel_size=(3, 3), stride=(1, 1), padding=(1, 1))\n",
      "    (24): ReLU(inplace)\n",
      "    (25): Conv2d(512, 512, kernel_size=(3, 3), stride=(1, 1), padding=(1, 1))\n",
      "    (26): ReLU(inplace)\n",
      "    (27): MaxPool2d(kernel_size=2, stride=2, padding=0, dilation=1, ceil_mode=False)\n",
      "    (28): Conv2d(512, 512, kernel_size=(3, 3), stride=(1, 1), padding=(1, 1))\n",
      "    (29): ReLU(inplace)\n",
      "    (30): Conv2d(512, 512, kernel_size=(3, 3), stride=(1, 1), padding=(1, 1))\n",
      "    (31): ReLU(inplace)\n",
      "    (32): Conv2d(512, 512, kernel_size=(3, 3), stride=(1, 1), padding=(1, 1))\n",
      "    (33): ReLU(inplace)\n",
      "    (34): Conv2d(512, 512, kernel_size=(3, 3), stride=(1, 1), padding=(1, 1))\n",
      "    (35): ReLU(inplace)\n",
      "    (36): MaxPool2d(kernel_size=2, stride=2, padding=0, dilation=1, ceil_mode=False)\n",
      "  )\n",
      "  (classifier): Sequential(\n",
      "    (0): Linear(in_features=25088, out_features=4096, bias=True)\n",
      "    (1): ReLU()\n",
      "    (2): Dropout(p=0.25)\n",
      "    (3): Linear(in_features=4096, out_features=2048, bias=True)\n",
      "    (4): ReLU()\n",
      "    (5): Dropout(p=0.25)\n",
      "    (6): Linear(in_features=2048, out_features=512, bias=True)\n",
      "    (7): ReLU()\n",
      "    (8): Dropout(p=0.25)\n",
      "    (9): Linear(in_features=512, out_features=102, bias=True)\n",
      "    (10): LogSoftmax()\n",
      "  )\n",
      ")\n"
     ]
    }
   ],
   "source": [
    "# TODO: Write a function that loads a checkpoint and rebuilds the model\n",
    "def load_checkpoint(filepath):\n",
    "    checkpoint = torch.load(filepath)\n",
    "    classifier = build_classifier(\n",
    "                            checkpoint['input_size'],\n",
…
